runfile('E:/Freelancer Project/Ongoing Project/Music Genre Classification/CNN.py', wdir='E:/Freelancer Project/Ongoing Project/Music Genre Classification')
Reloaded modules: preprocess
Preprocessed files exist, deserializing npy files
Training X shape: (500, 128, 33)
Training Y shape: (500, 10)
Build CNN model ...
Model: "sequential_4"
_________________________________________________________________
 Layer (type)                Output Shape              Param #   
=================================================================
 conv2d_12 (Conv2D)          (None, 128, 33, 32)       320       
                                                                 
 leaky_re_lu_16 (LeakyReLU)  (None, 128, 33, 32)       0         
                                                                 
 max_pooling2d_12 (MaxPoolin  (None, 64, 17, 32)       0         
 g2D)                                                            
                                                                 
 conv2d_13 (Conv2D)          (None, 64, 17, 64)        18496     
                                                                 
 leaky_re_lu_17 (LeakyReLU)  (None, 64, 17, 64)        0         
                                                                 
 max_pooling2d_13 (MaxPoolin  (None, 32, 9, 64)        0         
 g2D)                                                            
                                                                 
 conv2d_14 (Conv2D)          (None, 32, 9, 128)        73856     
                                                                 
 leaky_re_lu_18 (LeakyReLU)  (None, 32, 9, 128)        0         
                                                                 
 max_pooling2d_14 (MaxPoolin  (None, 16, 5, 128)       0         
 g2D)                                                            
                                                                 
 flatten_4 (Flatten)         (None, 10240)             0         
                                                                 
 dense_8 (Dense)             (None, 128)               1310848   
                                                                 
 leaky_re_lu_19 (LeakyReLU)  (None, 128)               0         
                                                                 
 dense_9 (Dense)             (None, 10)                1290      
                                                                 
=================================================================
Total params: 1,404,810
Trainable params: 1,404,810
Non-trainable params: 0
_________________________________________________________________
Epoch 1/50
13/13 [==============================] - 5s 314ms/step - loss: 227.4703 - accuracy: 0.0963 - val_loss: 18.2184 - val_accuracy: 0.3111
…
